…
r=0.1, box=7.5, cls=0.5, dfl=1.5, pose=12.0, kobj=1.0, label_smoothing=0.0, nbs=64, hsv_h=0.015, hsv_s=0.7, hsv_v=0.4, degrees=0.0, translate=0.1, scale=0.5, shear=0.0, perspective=0.0, flipud=0.0, fliplr=0.5, bgr=0.0, mosaic=1.0, mixup=0.0, copy_paste=0.0, auto_augment=randaugment, erasing=0.4, crop_fraction=1.0, cfg=None, tracker=botsort.yaml, save_dir=runs/detect/yolov10_transfer_learning4
Overriding model.yaml nc=80 with nc=54

                   from  n    params  module                                       arguments                     
  0                  -1  1      2320  ultralytics.nn.modules.conv.Conv             [3, 80, 3, 2]                 
  1                  -1  1    115520  ultralytics.nn.modules.conv.Conv             [80, 160, 3, 2]               
  2                  -1  3    436800  ultralytics.nn.modules.block.C2f             [160, 160, 3, True]           
  3                  -1  1    461440  ultralytics.nn.modules.conv.Conv             [160, 320, 3, 2]              
  4                  -1  6   3281920  ultralytics.nn.modules.block.C2f             [320, 320, 6, True]           
  5                  -1  1    213120  ultralytics.nn.modules.block.SCDown          [320, 640, 3, 2]              
  6                  -1  6   4604160  ultralytics.nn.modules.block.C2fCIB          [640, 640, 6, True]           
  7                  -1  1    417920  ultralytics.nn.modules.block.SCDown          [640, 640, 3, 2]              
  8                  -1  3   2712960  ultralytics.nn.modules.block.C2fCIB          [640, 640, 3, True]           
  9                  -1  1   1025920  ultralytics.nn.modules.block.SPPF            [640, 640, 5]                 
 10                  -1  1   1545920  ultralytics.nn.modules.block.PSA             [640, 640]                    
 11                  -1  1         0  torch.nn.modules.upsampling.Upsample         [None, 2, 'nearest']          
 12             [-1, 6]  1         0  ultralytics.nn.modules.conv.Concat           [1]                           
 13                  -1  3   3122560  ultralytics.nn.modules.block.C2fCIB          [1280, 640, 3, True]          
 14                  -1  1         0  torch.nn.modules.upsampling.Upsample         [None, 2, 'nearest']          
 15             [-1, 4]  1         0  ultralytics.nn.modules.conv.Concat           [1]                           
 16                  -1  3   1948800  ultralytics.nn.modules.block.C2f             [960, 320, 3]                 
 17                  -1  1    922240  ultralytics.nn.modules.conv.Conv             [320, 320, 3, 2]              
 18            [-1, 13]  1         0  ultralytics.nn.modules.conv.Concat           [1]                           
 19                  -1  3   2917760  ultralytics.nn.modules.block.C2fCIB          [960, 640, 3, True]           
 20                  -1  1    417920  ultralytics.nn.modules.block.SCDown          [640, 640, 3, 2]              
 21            [-1, 10]  1         0  ultralytics.nn.modules.conv.Concat           [1]                           
 22                  -1  3   3122560  ultralytics.nn.modules.block.C2fCIB          [1280, 640, 3, True]          
 23        [16, 19, 22]  1   4489044  ultralytics.nn.modules.head.v10Detect        [54, [320, 640, 640]]         
YOLOv10x summary: 688 layers, 31758884 parameters, 31758868 gradients

Transferred 1123/1135 items from pretrained weights
[34m[1mDDP:[0m debug command /home/aamotyakin/.conda/envs/yolov8_new/bin/python -m torch.distributed.run --nproc_per_node 4 --master_port 34900 /home/aamotyakin/.config/Ultralytics/DDP/_temp_d4mtc6gz140024848611136.py
Ultralytics YOLOv8.2.54 🚀 Python-3.12.4 torch-2.3.1 CUDA:0 (Tesla V100-SXM2-32GB, 32501MiB)
…
